pytorch_reference/simple_cnn_model.pth (torch, 14017 bytes, 5 tensors)

conv1.weight f4 [16, 1, 3, 3]
000000 50 bd d7 bd db 10 de bd 5b 63 80 bd 76 2e 3b be
       -0.10534155 -0.10843059 -0.062689506 -0.18279442
000010 6e 31 4c be 7e d8 da 3b 6b 5c 4c 3e b3 da 9f be
       -0.19940731 0.00667864 0.1995713 -0.31221542
000020 63 29 29 be d4 ee a7 3e 43 f6 56 3e 91 5d 7b bd
       -0.16519694 0.327994 0.20992379 -0.06136853
000030 26 c1 05 3e 55 cc ee bd 64 37 93 3e 83 35 72 be
       0.13061962 -0.11660067 0.28753197 -0.23653226
000040 7c 2b 55 bd 47 60 37 be b1 50 aa 3e 3b 84 a3 be
       -0.052043423 -0.1790782 0.33264688 -0.3193682
000050 df 72 4a be 07 8b e6 bd 4f 4e 44 3d 16 fd 02 be
       -0.19770382 -0.11256986 0.047926243 -0.12791857
000060 8a ac 15 3e 98 6b a8 3e 28 0e 66 be 00 ab 5e 3e
       0.146166 0.32894588 -0.22466338 0.21744919
000070 69 a3 0d 3e 17 83 aa 3d 2d a8 82 3e 5b 2f 37 be
       0.13831867 0.08325785 0.25518933 -0.17889158
000080 0e 61 74 bb c3 98 77 3e ab aa 2f 3e 2c c8 00 3d
       -0.0037289294 0.24179368 0.17154948 0.0314409
000090 61 20 29 be 98 e7 40 be 1f 11 e2 3d fc 28 52 3e
       -0.16516258 -0.18838346 0.11038422 0.20523447
0000a0 c0 fa 85 be ab dd 87 be ff fd 9e 3e 53 ad 99 3d
       -0.2616787 -0.26536307 0.3105316 0.07503762
0000b0 3a 54 94 be b9 3b ae bd c0 4c d4 3d cc 0e a1 3e
       -0.2897051 -0.08507485 0.103662014 0.31456602
0000c0 96 d8 1b 3e bb 75 6d be 24 56 9d be cf 11 02 bc
       0.1521934 -0.23189442 -0.30729783 -0.007938816
0000d0 5a 30 84 bc a5 9a 52 3c e4 87 b4 be 5d 7f d9 3c
       -0.016136337 0.012854253 -0.35259926 0.02654999
0000e0 fc 07 c7 bd 28 b3 bf bd 6e 7d 99 3d ad 6e 15 3e
       -0.0971832 -0.09360343 0.07494627 0.14593
0000f0 a6 89 7b 3e e2 7b 93 3e ea 2f 88 3e 0a 32 a6 3e
       0.24564227 0.28805453 0.26599056 0.32460052
000100 3b eb eb bd ce a4 62 be a0 1a ad bd 54 5b 8f be
       -0.11519476 -0.2213318 -0.08452344 -0.27999365
000110 d8 ac 39 3e cb 51 8c be fb 6d d9 3d 40 fd f5 bd
       0.18132341 -0.27406153 0.1061668 -0.12011194
000120 85 c9 30 be 0f 82 96 be 68 59 33 3e 10 43 42 be
       -0.17264374 -0.29396102 0.17514575 -0.18970895
000130 91 81 5d be 83 07 c2 bd ea fe 48 3e f5 2f 93 3e
       -0.21631457 -0.09474089 0.19628492 0.28747526
000140 fa d3 79 3e f4 7f 34 3e 6b 8c 73 3d 4a 81 95 be
       0.24397269 0.17626935 0.059460085 -0.29200202
000150 e3 99 0e be c7 5a 9a 3d 58 43 88 3e f2 7f f7 bd
       -0.1392589 0.07536846 0.2661388 -0.120849505
000160 11 72 40 3b c8 a2 98 3e 30 c9 9c 3e aa b3 91 3e
       0.0029364864 0.29811692 0.30622244 0.28457385
000170 d8 09 83 be cb ba 2b 3d 8a da 97 be a0 fc 84 be
       -0.25593448 0.041926187 -0.2965892 -0.25973988
000180 d8 40 8f be 7b ca 0f be 10 c8 a0 3d 40 27 99 be
       -0.2797916 -0.14042084 0.07850659 -0.29912758
000190 fb 8e ae bd 43 4d 94 be e3 36 00 be 8b 33 2f be
       -0.08523365 -0.28965196 -0.12520938 -0.17109506
0001a0 4e f5 93 3e b0 2d 5f be 1b 85 bf bd 76 a5 7b 3e
       0.2889809 -0.21794772 -0.0935156 0.24574837
0001b0 06 63 d4 3d 8b 75 5e 3d d6 e7 9d be 3a 85 85 be
       0.1037045 0.054311316 -0.3084094 -0.26078206
0001c0 56 83 2b 3c 80 fd 94 bc 0b c1 63 bd de d3 1b be
       0.010468325 -0.018187284 -0.055604022 -0.1521754
0001d0 80 8a 15 3e c8 2f 31 3e 38 1b 89 3d 7b e8 04 be
       0.14603615 0.17303383 0.06694645 -0.1297931
0001e0 2b 3c c0 3e 1f ce 00 3e bd bd 55 be 77 cb 17 3e
       0.37545905 0.12578629 -0.2087316 0.1482371
0001f0 00 65 2d be 4a 1f 5e be ad 01 3e 3e e1 e2 49 3e
       -0.1693306 -0.21691623 0.18555327 0.19715454
000200 66 a4 13 3e da 4f 4b bd 05 29 c1 bd 73 90 3e 3d
       0.14418182 -0.0496367 -0.09431652 0.046524476
000210 38 68 91 3e e3 20 db bc 6d 98 82 3e 1d 3c bc 3d
       0.28399825 -0.02674908 0.25506917 0.09191153
000220 ef a2 7a be e8 4b 3a 3e 3b fe 7a be 76 79 b2 3e
       -0.24476217 0.18193018 -0.24511044 0.34858292
000230 17 0b 2f be 10 79 b8 3e 3b db 21 3d 3e 50 e3 bd
       -0.17094074 0.36029863 0.039515715 -0.11099289

conv1.bias f4 [16]
000000 93 ba a0 3e 98 c8 8d 3e a6 ba 29 be 27 5c 63 be
       0.31392345 0.27692103 -0.16575107 -0.22203122
000010 c1 a5 71 3e e4 3b 5c be 4b 7a ca bd 2e 47 a9 be
       0.23598386 -0.21507221 -0.09886607 -0.33062118
000020 20 66 a3 bd 1c 0c 96 3e 3e ad 9b be d8 cc 30 be
       -0.07978463 0.29306114 -0.3040561 -0.17265642
000030 03 0c 85 be c5 c1 c2 3c bc fa 7b 3e 2b 24 17 3e
       -0.25985727 0.023774037 0.24607366 0.1475989

conv2.weight f4 [16, 16, 3, 3]
000000 6d 36 76 bc 1b e5 9f bd 6e 80 00 3d 7b b5 af bc
       -0.015027625 -0.0780737 0.03137248 -0.021448841
000010 60 bd c2 3c 8c d1 41 ba 5b 1f bd 3c fb 7f fe 3c
       0.023771942 -0.00073935906 0.02308624 0.031066885
000020 6b 2b 8e 3b 9f 0d 72 bd 56 cf 0b 3d 62 2f 83 3d
       0.004338672 -0.05909502 0.034133278 0.06405522
000030 7e 6c 9a 3d 7a 34 a4 bc da 6c 9e 3b 1f 7a 27 bd
       0.075402245 -0.020044554 0.0048347535 -0.040887948
000040 17 f5 95 bd 87 bd f9 3a da c5 8d bd 72 52 70 bd
       -0.07322138 0.0019053676 -0.06922503 -0.058672376
000050 73 3b 6a bc 1a fd d0 3c 14 6d 7d bd 95 df 5c 3d
       -0.0142964 0.025511313 -0.061871603 0.053924162
000060 1f c2 a5 3d e0 56 1e bc bc 64 b7 bc b3 56 54 3c
       0.08093666 -0.009664267 -0.022386901 0.012960124
000070 bc 13 c7 3c 24 cc 86 bb 1e c6 b0 3d e6 7f 44 bd
       0.024301402 -0.004113691 0.08631538 -0.047973536
000080 53 8e 80 3d 33 8a 11 3d 94 48 df 3c 82 55 8a bd
       0.06277146 0.035532188 0.027256288 -0.067545906
000090 4c 45 d0 bc bd fe 55 3d a8 8c df 3c 9c f8 76 3d
       -0.025423668 0.05224489 0.02728875 0.060295686
0000a0 1e 00 91 bc 62 e6 9d bd a4 02 35 bd 69 56 96 3d
       -0.017700251 -0.07709958 -0.04419197 0.073407
0000b0 1e e3 71 3c 80 3c 80 bd a7 30 2a bd 3c ca 84 bd
       0.014763622 -0.062615395 -0.041550305 -0.06483886
0000c0 e7 42 af 3c bf 41 bd bb bf a0 a3 3c 72 f0 53 3c
       0.021394206 -0.00577566 0.01997411 0.012935745
0000d0 6f 1f ec bb ae 62 68 bc c0 0e 86 3d f6 58 5d 3d
       -0.0072058956 -0.014183683 0.06545782 0.054039918
0000e0 8a f7 85 bd 23 fe 82 ba a4 b3 0e bd 0f 7c 4f 3c
       -0.06541355 -0.0009993952 -0.034839287 0.012663855
0000f0 d6 e4 a1 bd 3e 17 af 3d 27 89 bf 3c 14 30 9a bd
       -0.07904975 0.08549355 0.023380829 -0.075287014
000100 b0 21 f9 3c 13 cf 12 3d 2b 5c a4 bc ab 82 a1 39
       0.030411571 0.035842013 -0.02006348 0.00030805668
000110 16 ae 80 3c 26 ad 24 bd 54 bb 80 bd 82 c7 93 3d
       0.01570801 -0.04020419 -0.0628573 0.072157875
000120 89 b0 03 3d b4 b2 a8 3b 77 15 88 3d c7 6a 25 3d
       0.03215078 0.005148256 0.06644719 0.040385034
000130 24 83 14 bc 13 7f 28 bc 12 0b 4f 3d 91 67 45 3d
       -0.0090644695 -0.010284203 0.050547667 0.04819447
000140 16 0d 64 3d 6e ae dd 3c 5c 20 5c 3d db df b7 bc
       0.055676542 0.027060714 0.053741798 -0.02244561
000150 66 88 62 bd bb 26 a8 3d 29 a7 94 3d f2 f5 5b 3a
       -0.05530586 0.08210512 0.07258446 0.0008390836
000160 d9 5d ba 3c 68 16 4b 3d 83 3b a2 bd 6b 4e 93 bb
       0.022749828 0.049581915 -0.07921507 -0.004495432
000170 d0 fc 08 bd 56 1d 83 bc 0b df 02 bd 10 47 dd 3c
       -0.033444226 -0.0160052 -0.03195099 0.027011424
000180 db ab ee bc 5f fc 83 3d 50 df 73 bd 00 07 cf 3a
       -0.029134681 0.0644462 -0.05953914 0.0015794933
000190 e7 b6 a7 bd 20 1a cc 3c eb 66 b6 3c cb bd 0d bc
       -0.08189183 0.024914801 0.022265872 -0.008651207
0001a0 16 d5 ef bb 38 1e 91 bd cb db 50 3d 14 56 82 bd
       -0.007319103 -0.07085842 0.05099086 -0.06364074
0001b0 43 b1 a5 bd 22 fa a6 3d e6 21 2d 3d 56 54 c6 3b
       -0.080904506 0.08153178 0.042268656 0.006052534
0001c0 a6 f4 64 bd 56 55 c1 b8 a3 60 a6 bd 6e c3 a0 3d
       -0.055897377 -9.218852e-05 -0.08123901 0.07849775
0001d0 4b 25 09 bd 1b c9 8d 3d c5 93 1e bd ed a8 a2 3d
       -0.03348283 0.069231234 -0.038715143 0.07942376
0001e0 62 75 96 bd d8 6b 35 bd 97 4d 61 bd a2 bf 99 3d
       -0.07346608 -0.0442923 -0.055005636 0.07507254
0001f0 a4 ab c8 bd 57 a0 99 bd e3 a1 02 3d b4 df f5 3b
       -0.09798363 -0.075012855 0.03189267 0.007503474
000200 ed 91 1a bd d7 32 b9 3b bd 92 18 bc 40 97 8f bd
       -0.037736822 0.0056518125 -0.009312329 -0.070112705
000210 2c 7e f7 ba 8c 00 5e 3c 34 96 69 3d 8b a2 a6 3d
       -0.0018882207 0.013549935 0.05702801 0.08136471
000220 a9 32 dc bc 0b c4 b3 bd 7b 7d 1f 3c a6 2e 04 3d
       -0.026879625 -0.087776266 0.009734507 0.03227105
000230 0a 85 17 bd fe 9c d0 bc f4 89 85 3d ff 06 49 3d
       -0.03699211 -0.025465485 0.06520453 0.049078938
000240 0b f9 c6 bc 1b a3 24 bd f3 80 03 bd cb 93 74 3c
       -0.024288675 -0.040194612 -0.032105397 0.014927815
000250 80 23 00 3b 56 06 fb bb 6e 44 a1 bd 50 86 8c 3c
       0.001955241 -0.0076606674 -0.0787438 0.017153889
000260 16 0f 39 3d 0b 0a 49 bc 76 3a ba 3c 96 0a 5e 3c
       0.045180403 -0.012270461 0.022732954 0.013552329
000270 6e 6c 05 bd fa 14 85 3d 78 ba 0b 3d 10 80 cc bc
       -0.03257411 0.064981416 0.034113377 -0.024963409
000280 c8 a0 25 3d f6 ed 28 bd 0e f1 0e bd b8 fe 9c 3d
       0.040436536 -0.041242562 -0.034897856 0.07665771
000290 96 30 7e bd 04 3d 8f bd 13 75 23 bd 50 4e 47 bd
       -0.062058054 -0.0699406 -0.039906573 -0.04865867
0002a0 16 60 c2 bb 00 eb d5 bb 70 b9 7e 3d 4b 27 37 bc
       -0.0059318645 -0.0065282583 0.062188566 -0.011178802
0002b0 80 d2 42 bd 60 65 07 bd 65 a1 09 3a 0b 39 23 3d
       -0.04756403 -0.033055663 0.0005250185 0.039849322
0002c0 3a be a4 bd f8 d5 37 bd 7b b0 e3 3c b0 c8 19 bd
       -0.08044095 -0.04488179 0.027794113 -0.037544906
0002d0 1c 68 aa bd e0 f1 7e 3d 6b 94 c6 3c 10 40 6e 3d
       -0.083206385 0.06224239 0.024240693 0.058166564
0002e0 b6 a9 7c bd 76 48 17 bd 3c ef 8b 3d 5b ba 9a bc
       -0.061685286 -0.03693434 0.0683274 -0.01888769
0002f0 b0 6a ee 3c 6b d4 83 bc f3 34 82 3d 40 77 25 bc
       0.029103607 -0.0160925 0.063577555 -0.010099232
000300 56 f4 48 3c 73 6d 95 3d 56 b5 c5 b8 20 77 ff bc
       0.0122652855 0.072962664 -9.4274685e-05 -0.031184733
000310 2b fe 9d 3c 9e 25 0d bd 77 aa 99 3d e0 f8 6b bc
       0.019286236 -0.034459703 0.07503217 -0.014402598
000320 96 1d 03 3c f6 16 36 3d 46 17 d1 bc 86 fe 07 3d
       0.008002659 0.04445549 -0.025523793 0.033201717
000330 ab a5 da 3b 40 24 a6 bb 9c 5b 98 bd 56 89 a8 3d
       0.006672581 -0.0050702393 -0.07439348 0.0822932
000340 cb a9 b7 bc f8 40 35 3d 6e 30 21 3d fb 50 88 bc
       -0.02241983 0.044251412 0.039352827 -0.016640177
000350 cb 30 7b 3d eb 6a 5d 3d e8 78 a0 bd c0 0b f6 bc
       0.06132583 0.054057043 -0.07835561 -0.0300349
000360 b3 d8 6c 3d 2b fe 70 bd 98 db 7b 3d e3 0d 92 bd
       0.057823848 -0.058836143 0.061488718 -0.07131555
000370 de 3b 51 bd 4e 82 5c bd 56 24 3d bc a6 07 09 3d
       -0.051082484 -0.053835206 -0.011544308 0.03345456
000380 eb 46 7d 3c c0 70 25 bc 9e 65 87 bb 30 24 8a bc
       0.015458803 -0.0100976825 -0.0041319868 -0.016862959
000390 18 7c 0c 3d 58 89 70 3d b0 62 83 bd 63 e9 94 3d
       0.034298033 0.05872473 -0.064153075 0.072710775
0003a0 1b e5 aa bc b6 e8 34 bc 8e 63 00 bd 80 95 67 bc
       -0.0208612 -0.011041811 -0.031344943 -0.014134765
0003b0 af dc 93 3d 8c 2c 86 bd 60 5e c8 3c a6 63 8a 3d
       0.072198264 -0.065514654 0.024459064 0.06757288
0003c0 ab 3f bb 3c 3f 66 a6 bd 9b 55 97 3d 92 eb 8d bd
       0.022857508 -0.08124971 0.07389375 -0.06929697
0003d0 ce 66 23 bd d6 cb 2b bb 3b e6 c5 3c e3 29 61 3d
       -0.039892964 -0.0026214025 0.024157634 0.054971587
0003e0 ce 7d a9 bd db 6a 99 3d c3 2d 66 bd ab 64 49 bb
       -0.082759485 0.07491084 -0.056195986 -0.0030730169
0003f0 6b f5 3d 3d 13 40 15 3d 5e 86 7d bd 56 e7 84 bb
       0.046376627 0.03643806 -0.06189572 -0.0040558977

conv2.bias f4 [16]
000000 62 42 70 3d 88 c8 96 3d 68 56 7e 3d 34 dd 11 3a
       0.058657058 0.07362467 0.062094122 0.0005564273
000010 a3 74 f8 bc 75 6e 87 bd 3f 72 b3 3c 3e 75 d0 3c
       -0.030329054 -0.06612865 0.021905063 0.02544653
000020 27 45 10 bc 2f 58 8b bd ac 7e 37 bc ff 49 be 3c
       -0.00880555 -0.06803929 -0.0111996345 0.023228643
000030 72 d2 32 3c 87 4b d6 3c a1 bd 5b bd 2e fb 67 bd
       0.010914432 0.026159061 -0.05364764 -0.056636028

conv3.weight f4 [1, 16, 3, 3]
000000 fd d6 ce 3d 64 e8 cc bd 57 c4 cb bd 72 1b f9 3a
       0.100995995 -0.100052625 -0.09949558 0.0019005372
000010 d3 28 06 bd 02 90 a5 bd 32 ad 1a 3d 77 9d c1 3d
       -0.032753777 -0.08084108 0.03776283 0.09453862
000020 f8 d7 c4 3d fe bb 83 bd 96 02 c8 bc ab 68 13 3d
       0.09611505 -0.06432341 -0.024415296 0.03598849
000030 6b fb 55 3c 66 47 ea bc e0 1d fd 3c 00 ad a0 bc
       0.013060431 -0.028598499 0.030898035 -0.019613743
000040 5b 41 92 3d d6 ba 53 3c 4f 8c 9d bc 36 7a 16 3e
       0.07141372 0.012922963 -0.019231943 0.14695057
000050 71 be 7a 3d 4d 86 b6 bb 38 57 9e 3d 66 9d 95 3d
       0.061216775 -0.005570209 0.077314794 0.07305412
000060 e7 ec f1 bb d2 0e 95 bd a5 4c a5 3d c2 48 1c 3b
       -0.0073829773 -0.072782174 0.080712594 0.0023847078
000070 86 5b e4 3d f9 ec 24 bc d3 5f a9 3c a1 06 e7 bc
       0.11150269 -0.010066264 0.020675575 -0.028201403
000080 fb 06 03 bc 85 70 82 3d 72 0c 25 bd 1e a5 cd 3d
       -0.00799727 0.06369118 -0.040295072 0.10041259
000090 b4 18 8a 3d 4c e4 6d 3d 04 8d 4d bd 8b ed cf bc
       0.06742993 0.05807905 -0.05018331 -0.025381824
0000a0 64 6d 31 3c 5a 27 7d bc c5 1f 2c 3d 73 3f 09 3e
       0.010829303 -0.015451277 0.042022485 0.1340311
0000b0 2a 86 67 bc ae 41 48 3d 9e 12 06 3d a9 a8 87 bc
       -0.014131108 0.048890762 0.0327326 -0.016559916
0000c0 04 1d bb bd 69 71 ed 3c 7f d9 ae 3d 7b 56 d8 3d
       -0.09136394 0.028984742 0.08537578 0.1056337
0000d0 01 60 39 3c 4d 2f 91 3d 64 ed 79 3d 8d 2c ff 3a
       0.011314393 0.070891 0.06101741 0.0019468233
0000e0 dc 26 be bd 47 ae 4c 3d 51 2f 6f 3d 0a 2d d0 3d
       -0.092847556 0.04997089 0.058394734 0.101648405
0000f0 6a 2c b7 bd f1 f6 00 3b 33 bd 65 bd 8f 5c 94 3d
       -0.08944018 0.0019678439 -0.056088638 0.07244217
000100 3e f0 9b 3d 0c 69 db 3c 48 ca 0f 3d 34 fe 84 3d
       0.07614182 0.026783489 0.03510502 0.06493798
000110 bc 6e ae 3d 30 e3 5e bd fa 2a ae 3d 88 26 0a bd
       0.08517215 -0.05441588 0.08504291 -0.033728153
000120 f9 21 a1 3d c7 05 fe 3d c8 46 22 3d 5d 16 5e bd
       0.07867808 0.12403446 0.039618284 -0.054220546
000130 e6 f2 9f 3d c8 9b c5 bd 62 0f 93 bc f9 68 a8 3b
       0.07810001 -0.096488535 -0.017951671 0.005139467
000140 7f e8 9f 3d 0b 2e df bc e8 e8 73 3d d0 96 a3 3d
       0.07808017 -0.027243635 0.05954829 0.079877496
000150 08 3b 03 bd 70 f7 5c bd 58 5d 94 bd 56 10 75 bc
       -0.03203872 -0.053946912 -0.072443664 -0.014957508
000160 c8 b5 30 3d c3 77 08 bd 1c 58 49 3d 97 15 88 3d
       0.04314211 -0.03331734 0.049156293 0.06644743
000170 03 9c 98 3c a7 85 19 bc 40 b4 8e bd 9d 57 cb bc
       0.01862908 -0.009370244 -0.06967974 -0.02482205
000180 6e 6d 6a bc c2 78 8f 3b fb 9d 55 3c 5b 3f 99 3c
       -0.014308317 0.004378409 0.013038154 0.018706968
000190 60 1c 88 bd cd 39 c5 bc 3d 93 7c bd 81 64 7a bd
       -0.06646037 -0.024075413 -0.061663855 -0.061131004
0001a0 24 af 89 bd 9a 0c c1 bb 6e 7d 2a 3d 26 74 6d 3d
       -0.067228585 -0.005891395 0.041623525 0.057972096
0001b0 06 02 00 3d d6 c8 ae bb ba b8 88 3d 48 13 5e bd
       0.03125193 -0.005334 0.06675859 -0.054217607
0001c0 1a f7 1b 3e f8 5a 09 3e b7 ed ec 3c ac a0 b7 bd
       0.1523098 0.13413608 0.028921945 -0.089661926
0001d0 7b ac a8 3d 06 b5 4f 3d 5e 05 aa 3d 96 cb 87 bb
       0.08236023 0.050709747 0.08301805 -0.0041441424
0001e0 2d df dc 3b 7d 08 18 3c 33 9d 08 3d 33 54 13 3d
       0.006740472 0.0092793675 0.03335304 0.03596897
0001f0 b4 bb 88 3d 4a 62 d7 bc 15 e6 2f bd d3 45 0e bd
       0.066764265 -0.026291985 -0.042944033 -0.03473456
000200 96 05 a7 3c 30 d3 79 bd f5 38 40 bd 0a d6 67 3d
       0.020388406 -0.06099242 -0.04692932 0.056600608
000210 45 0c 51 bd 67 d5 fc 3c 68 eb 47 3d b4 fe 06 bd
       -0.05103709 0.030863477 0.048808485 -0.032957748
000220 97 e0 83 3d 3f 51 87 bd 7d aa f4 3d 84 a1 eb bd
       0.064393215 -0.06607293 0.119465806 -0.11505416
000230 a0 77 df bc 78 2c 0f bc 7a 44 bc bc 4f f1 b9 3c
       -0.027278721 -0.0087386295 -0.02298187 0.022698073
